reclamation-classifier/mlp_model.pth (torch, 108017 bytes, 4 tensors)

fc1.weight f4 [128, 201]
00000000: 24f4 b4bc 1323 06bd d2e4 373d 4c0c 9dbc
00000010: 4024 c33c e876 89bd a21d 1fbd 75c4 143b
00000020: e09a 6e3b 64f5 eebc 801a a93b bcb0 82bd
00000030: 3eb6 373d e486 9ebc 6223 7e3d cbbe 8e3d
00000040: 6070 73bb ca58 96bc 006a 7439 dab6 06bd
00000050: 30a1 a73c a03e 49bd 349d 513d 7ec1 55bd
00000060: fcfc 053d 00a1 c03b b41f 963c 3c9c 1bbc
00000070: 2e00 333d 3250 8bbc 48d2 5a3d 22d9 45bd
00000080: 884d 6ebd cd8e 19bd 7ec7 273d e8e9 c83c
00000090: a8fd 4c3c 567e dbbc f493 1dbc 9437 0a3d
000000a0: f878 6fbc 2e4d 8bbc ecaa b7bc c8f0 0f3c
000000b0: ca08 7b3d 1e8f c2bc f462 9bbc 308b fd3c
000000c0: 09f5 1dbd c8cc 5d3d a037 bf3c 3089 11bd
000000d0: 28b6 b9bc b685 7a3d fabd 863d 5a29 01bd
000000e0: 4fd7 813d 2e3c 7c3d b89c d13c 42cb 403d
000000f0: ce82 61bd 26aa ccbc 3727 81bd 3b7c 71bd
00000100: 8231 663d 76c7 3d3d dfe1 963c c3d4 543c
00000110: d21b f7bc 0a9e 77bd 97bb 42bd 0e05 2a3d
00000120: 3c8c a13c 68c1 7e3d bf5c 28bd c0e5 e13c
00000130: 5269 4abd 7f0f 18bd 2e02 163d 7e5b ae3b
00000140: 807f 503d ccbb 13bd c906 073d b66b 3ebc
00000150: 8c8d 0c3d 3f39 16bd f4e3 8f3c c496 cb3c
00000160: 6cbc d13c 9484 043d 72f8 41bd 09ca 893d
00000170: de78 5abd 477e 0fbd e06c 1bbd ba9e 353d
00000180: ae61 ae3d 9081 a43b cc38 8abd 6cfe 34bd
00000190: 0c28 d93c 6606 c4bc 6016 73bb 44da 423d
000001a0: 6ac5 3f3d d4f7 64bd d4ea 96bc e509 8abd
000001b0: 98d2 7cbd 24db 533d f0a2 ab3b 40bf 9dba
000001c0: 00b9 e3bb 094e 5abd 20a3 323b c04c afbc
000001d0: 9f58 78bd d472 35bd 4230 5b3d 50f9 f03b
000001e0: a49e 8e3c 4965 843d a0a2 113d 843c 3cbc
000001f0: 0008 67ba e4f2 3fbc e49a c43c 16e0 793d
00000200: 0eb1 66bd 033a 8b3d 862d afbc dc34 b9bc
00000210: b0e3 afbb a83e f23c d202 6f3d b8e2 3ebd
00000220: 44a8 5b3d b279 6b3d 1898 583d db6f 20bd
00000230: 8893 633c 346c 193d 00d6 793a dac8 34bd
00000240: 437a 72bd 7c27 4a3d 6ab5 283d 257d 1fbd
00000250: 5a1c 4dbd 5ca3 293d e40b 2f3d f535 04bd
00000260: 102a e8bc c07a 843c 30cf 5ebd 49a7 84bd
00000270: 4b8d 1b3d cb24 653d 287d 30bd ee84 ae3c
00000280: 22bf 353d d286 67bd 95f2 69bd c6ef 7c3d
00000290: b843 50bd d824 38bd 7017 c73c d25d 3ebd
000002a0: f8f6 273d 0056 173d aa59 25bd 7968 a73c
000002b0: ff8f 643c 50b4 bfbb e806 453d 6499 0c3d
000002c0: 4ca3 25bd 987f 77bd 6664 7d3d 6013 233b
000002d0: 66a6 88bd 3989 55bd 60c3 913b 1c64 7fbc
000002e0: eb1f 32bd e22c 8fbd faf0 86bd 6222 2f3d
000002f0: 100c 303d 1906 16bd caac 6bbd 76e8 61bd
00000300: a837 e53c d26e 4e3d 882a 28bc 846a 293d
00000310: 208b 0b3b e062 413c 6887 84bc 5cb8 5bbc
00000320: 3c03 973c faa8 78bd 3aba d1bc f0ce 2d3d
00000330: 40b4 46bb 9c3e 83bc 4afa 7ebd a893 fa3c
00000340: 94a8 2d3d f944 89bd 0a52 21bd 5171 73bd
00000350: 0aeb 39bd 28b3 33bd 00f1 1c3d dc9b 9c3d
00000360: 25ca 983d 1035 d3bc ee43 113d 169a 88bd
00000370: d0a5 aebc 2200 633d e234 59bd fe6f 3f3d
00000380: 70a8 25bd 414c 77bd 12cd 043d c064 c3bc
00000390: 78dc c13c e7fb 803d 786c 193d 0010 e538
000003a0: fe32 83bd 95cf 8fbd 9039 263d aeb8 333d
000003b0: 66fb debc f252 033d 67fc 8d3d 6516 79bd
000003c0: 2a9e 633d 0c80 15bd 5e95 f0bc 6af3 083d
000003d0: 6023 c43b ffae 83bd 10a3 6ebd 8830 89bd
000003e0: 8ca6 5ebd 6c0b 37bc d2f1 76bd 3851 d8bc
000003f0: 4684 7d3d ac11 22bd d097 51bc 0a54 b7bc
-0.022089072 -0.032748293 0.044895954 -0.019170903 0.023820996 -0.06712133 -0.03884662 0.0022700105
0.003640823 -0.029169746 0.0051606297 -0.06381366 0.044851534 -0.01935143 0.062045462 0.069699846
-0.0037145838 -0.018352885 0.00023309141 -0.032889225 0.020462602 -0.04913199 0.05117531 -0.05218648
0.032711968 0.0058785677 0.018325664 -0.009497698 0.043701343 -0.017006014 0.053423196 -0.048302777
-0.05817941 -0.0374897 0.040961735 0.024525598 0.012511648 -0.02679364 -0.009617794 0.03374441
-0.014616244 -0.017004576 -0.02242037 0.008785434 0.06128768 -0.023749884 -0.018968083 0.030950159
-0.03856376 0.054150373 0.023341954 -0.035531223 -0.022669867 0.061162673 0.06579204 -0.031533577
0.06339895 0.06158083 0.025587425 0.04706884 -0.055056386 -0.024983477 -0.06306308 -0.058956366
0.056199558 0.0463328 0.01841825 0.0129901795 -0.030164633 -0.060453452 -0.04754218 0.041508727
0.01972019 0.062196165 -0.041104075 0.027575374 -0.049416848 -0.037124153 0.036623172 0.0053209653
0.050902843 -0.03606777 0.032965455 -0.01162236 0.034314677 -0.036675688 0.017564751 0.024852164
0.025602542 0.032353 -0.047356077 0.06727988 -0.053337924 -0.035032537 -0.03794563 0.044340827
0.08514725 0.005020328 -0.067491144 -0.044187948 0.026508354 -0.023928832 -0.0037092194 0.047571436
0.046819128 -0.05590041 -0.018422522 -0.067401685 -0.061724275 0.05172266 0.0052379295 -0.0012035146
-0.006949544 -0.053297076 0.0027257875 -0.021398902 -0.06063139 -0.04429896 0.05351282 0.007353939
0.01740963 0.06464631 0.035555482 -0.011489037 -0.0008813143 -0.0117156245 0.023999639 0.06100472
-0.056321196 0.06798174 -0.021384012 -0.022608213 -0.0053677186 0.029570892 0.0583523 -0.046602935
0.053627267 0.057489105 0.052879423 -0.039169174 0.013890155 0.037456706 0.00095304847 -0.04413686
-0.05919863 0.04935406 0.041188635 -0.038937707 -0.050075866 0.041415557 0.04273595 -0.03227802
-0.02834037 0.016171813 -0.05439681 -0.064772196 0.037976544 0.05594329 -0.04308811 0.02130362
0.04437173 -0.05652506 -0.05711611 0.061752103 -0.05084583 -0.044957012 0.024303168 -0.046476193
0.041007012 0.03694725 -0.040368713 0.020435559 0.013950347 -0.0058503523 0.04810229 0.034325972
-0.040438935 -0.060424417 0.061863326 0.0024883375 -0.06672363 -0.05213282 0.0044483393 -0.015587833
-0.04348747 -0.069909826 -0.065889314 0.0427574 0.042980254 -0.03662691 -0.05753783 -0.055153333
0.02798064 0.050398655 -0.0102640465 0.041361347 0.0021292642 0.011803359 -0.016177848 -0.013410654
0.01843416 -0.060708024 -0.025601495 0.04243368 -0.003031984 -0.016021065 -0.062250413 0.030587986
0.042397097 -0.067026086 -0.03938488 -0.05943424 -0.045390166 -0.04387203 0.038315773 0.07646915
0.07460431 -0.025782138 0.035465173 -0.066700146 -0.0213193 0.05542005 -0.05302895 0.046737663
-0.040443838 -0.060375456 0.032422133 -0.023851752 0.023664698 0.062980466 0.03745696 0.00010922551
-0.0640621 -0.07022015 0.04058224 0.043877296 -0.027219485 0.032061525 0.069329076 -0.060812373
0.05557076 -0.03649907 -0.029368099 0.033435263 0.0059856623 -0.06429862 -0.058260977 -0.0669871
-0.05435805 -0.011172157 -0.06028921 -0.026405916 0.061893724 -0.039567634 -0.012792543 -0.02237894

fc1.bias f4 [128]
00000000: e4a7 4bbd 0250 2cbd fc3d 16bd 95c3 9fbc
00000010: 1616 833d 38c8 663d 1c77 893d caa5 1abd
00000020: ba61 c73c b38f a73c dabd 3f3d 253b 1a3b
00000030: 7442 ec3a 5a89 3c3c 9204 0c3d 9363 8ebc
00000040: 9e61 9d3d 339b 533a 4ffb 963d ca80 0a3c
00000050: 0509 a73c a1fb 7c3d c763 193d adbd e63c
00000060: 950f 9b3c 0057 13bd a94b e3bc 34b7 4c3d
00000070: 1bb9 9cbc 9870 cbbc bf6b 123c 831f 213c
00000080: 3de9 3e3d 346d a13b d12e 453d 4e52 24bd
00000090: 2aad 823d 4a8f 253d 1a16 843d 073d d03c
000000a0: 7409 263d 38cb 803c 63d4 3a3d b89b 2bbd
000000b0: 7be4 17bd cbbc 323d f351 493d 9861 06bc
000000c0: 6587 f1bc 6158 2cbd be0f 883d 4e6e e23c
000000d0: 13b1 683c 7ced 7bbc 920a 9c3d 1cef ffbc
000000e0: 61a7 ddbc e566 ee3c 9c84 823d 445e c73b
000000f0: 541d 8e3d b8bf 8c3d 67a4 643d 798d debc
00000100: 05fa a13d 2799 e4bc fdb3 45bd 5a10 273c
00000110: 1f5a 933d acb4 483d aa00 4a3c 4f6a e7bc
00000120: c180 3dbd 2fcb 82bd 52c4 963c 81a4 a3bc
00000130: 5e92 973d f6f3 3c3d 2a2f 6f3c 4458 843d
00000140: 8ca0 07bb 3a21 9e3c a73f 203d 4568 233d
00000150: 194a 323d 72ae 843d a5d8 f53b 86f3 2cbc
00000160: 3430 ee3c 8af3 34bd daf4 7c3d 5c3a 853d
00000170: 7778 d43c ce24 06bc ac12 793d 23d5 2cbd
00000180: d914 4e3c aeb5 fc3c bffa 893d 8850 783b
00000190: ecc3 383d c6a4 853d 05d0 bf3c 128a 753c
000001a0: 7e94 7c3b a566 e2bc b14d c6bc b637 0cbd
000001b0: 8d5e 9b3d b0b8 7b3d 1345 3bbd 586b e8bc
000001c0: 17c3 eabc a8ff 2b3c d94d 06bc 596f 203d
000001d0: 6051 963d 3b3c e9bc df95 1f3c d77b 0fbd
000001e0: dab3 d7bc 94f7 2cbd 8c19 7dbd f2cb 87bc
000001f0: 8079 913c a6de 8a3c 0852 cabb 17d8 583d
-0.04972066 -0.04206849 -0.036680207 -0.01950244 0.06400697 0.056343287 0.067121714 -0.037755765
0.024338592 0.020454263 0.046811916 0.0023533788 0.0018025176 0.011507357 0.034184046 -0.017381465
0.076846346 0.0008072138 0.07372152 0.008453557 0.020390043 0.06176341 0.03744867 0.028166616
0.018928329 -0.03597164 -0.027746039 0.049979404 -0.019131234 -0.024833962 0.0089368215 0.009834173
0.046609152 0.004926348 0.04814035 -0.040117554 0.06380685 0.040419854 0.06449528 0.025419725
0.04053636 0.015721902 0.045612704 -0.04189655 -0.03708313 0.04363708 0.04915042 -0.008201979
-0.029483506 -0.042076472 0.066436276 0.027640488 0.014202374 -0.015376445 0.076192036 -0.031241946
-0.027057352 0.029101798 0.063729495 0.0060842354 0.06939188 0.06872505 0.05582085 -0.027167069
0.079090156 -0.02790506 -0.048267353 0.01019677 0.071949236 0.049000427 0.01232926 -0.028248934
-0.046265367 -0.063864104 0.01840416 -0.019975903 0.07400964 0.046131097 0.014598647 0.06462148
-0.0020695059 0.019302953 0.039123204 0.03989436 0.043527696 0.06478585 0.0075026327 -0.010556107
0.02907572 -0.04417757 0.061756946 0.06505272 0.025936348 -0.008187486 0.060808823 -0.04219545
0.012578213 0.03084835 0.06737279 0.0037889797 0.04510872 0.06525569 0.023414621 0.014986532
0.0038540657 -0.027636835 -0.024206968 -0.034232818 0.075863935 0.06145543 -0.04572017 -0.028371498
-0.02865748 0.010497965 -0.008197271 0.03916869 0.0733974 -0.028471103 0.009740322 -0.035030212
-0.026330877 -0.042228296 -0.06179194 -0.01657674 0.017758131 0.01695187 -0.0061743297 0.052940454

fc2.weight f4 [4, 128]
00000000: 7249 c33c 6ffb 15bd 9a9a 6c3d 6402 823d
00000010: ff87 a0bd 1023 c9ba 5b24 ce3d 2971 aa3d
00000020: 9a5d b53d 49b3 e8bd 0cc4 11b9 63eb ddbd
00000030: e071 74bb 103f eb3b bc67 f6bd dd4d ba3d
00000040: 6987 86bd 0900 ffbd 0a97 da3c 29bb 633d
00000050: 5efd 3abc 4811 423c f49d 063d 8c47 9dbd
00000060: f07a 8ebd d73c adbd 0221 dd3d 2281 493d
00000070: b03e 59bd a244 2bbd 3452 2d3d 40f4 c83d
00000080: b26a f53d e7e4 b13c 6f2f 6ebd 6e11 a9bd
00000090: efcd dd3a 2a77 78bd 8967 833d c728 fd3d
000000a0: a071 b1bd 1428 bdbc 81e6 50bd 7c00 2ebd
000000b0: fa03 38bc b798 3f3d af09 59bd a505 6fbd
000000c0: 129e f1bc b78a b73c 7c97 643d 6a82 e43d
000000d0: c72f 5c3d e6cb ee3d c268 923d 9ce2 873d
000000e0: bbbf d83c 6971 8dbd 8f62 97bd 4da2 403c
000000f0: 1baf d33d 7ada 8ebb 57b8 bc3d 520d c7bd
00000100: 3b11 bcbd 92a1 53bc 6bd1 b43d 2656 163d
00000110: 252d cd3c 51fc 0bbe caff c2bc 314d fe3d
00000120: 1eb4 86bd 5f23 1cbd 7506 94bc a3fe d83c
00000130: 04db 0bbe f522 d1bd f6eb 96bd 2604 263d
00000140: feb3 903d b2d9 ebbd 3c09 fabd 45bd 49bd
00000150: 2ba7 8e3b d3ce 1d3d a0c9 d73d c2d0 64bd
00000160: ba8d e8bd e870 7b3d 88cb b1bd 8f14 98bd
00000170: 3a06 ca3c 9883 4b3d 0210 6abd da9f 83bd
00000180: 9bf1 ccbd c793 8a3d dd31 943d 611b 0ebd
00000190: e2aa df3d db74 89bd 628e a0bd c4ec d3bd
000001a0: ba4c e33c da98 903d baed 87bb 51c1 5ebd
000001b0: 5cc7 fcbd 77e6 fdbd 5265 15bd 0934 133b
000001c0: 2382 123d 382b 9fbd 04cf 633d 4fab d4bd
000001d0: 5332 a53d 8074 c0ba 93f7 123d bef9 d2bd
000001e0: 5c8c a73d 95e9 43bd 3a2e 3abd 2024 35bd
000001f0: 6f93 ebbd eb13 6e3d 3373 343c cb29 b8bd
00000200: 9874 89bd b0e9 e53b 961f 713d d024 e6bd
00000210: 9ab9 c43d 4c23 643d d174 45bc df8b edbc
00000220: b516 e23c 18cb 893d 442c a43d cc59 c3bd
00000230: e142 9e3d 9260 c1bd 7232 aa3d 2816 3cbd
00000240: 55b8 b43d 9bac a83c c82f a53d 3a07 393d
00000250: c154 d0bd f0aa 43bd a1f9 8d3d 071e cebd
00000260: 8da1 853d f380 9f3d bf8b 8cbd c0db a6bd
00000270: ee23 f8bd 03d4 be3d 1c1d 05be 8afa f7bd
00000280: 2b6d f6bc aab0 adbd d2e9 c93d 9b64 9f3d
00000290: 1b5a 11bc 6f04 bc3d dab7 8cbd fbd0 adbd
000002a0: 0aa2 bdbd 4e0a ac3d a34d 8c3d 3f4a 9c3d
000002b0: e905 43bd c251 2b3c 4a4a 9dbd 6bd3 7fbd
000002c0: d595 58bd 09b9 b8bc 44e7 143d 5056 debd
000002d0: fa20 9f3d e3e5 be3d f32d 933d 474b e8bd
000002e0: 0fcc 37bd 17f4 c0bd faca fd3d 17dd 0c3d
000002f0: b93e 2abd 15ad 08bd d412 b7bd e494 ba3d
00000300: fe67 833d 1d6a 803d 1b0b 023c 6d12 15bd
00000310: 75c4 b63d a89f 7abd 297c d83d 26d3 a33c
00000320: 0b61 e83d 1516 9c3d 226f 2abd c0fc 8cba
00000330: 360b 14bc c51e e33d 8f4e 1d3d 4de2 313d
00000340: 8dd8 c8bd 5609 b23d e5dc 833d 6513 c0bc
00000350: 56c0 8f3c 3999 44bd f3a1 9c3b a588 3c3d
00000360: 9618 e6bb 55c7 7bbc d87e 63bd 5b10 893d
00000370: 528b 0bbc e3c4 b43d ea77 553d f621 11bc
00000380: 5034 843d 1181 883d a0c9 7f3c 3f56 59bd
00000390: f6da 363d 3068 c03d c37f ccbd a581 9a3d
000003a0: 9622 e23d c90d e7bc 3aba b93d 0f43 acbd
000003b0: 6fa6 16bd 1c9e b53d a316 363d cfab bb3d
000003c0: 6e59 b83d b7cc 873c e219 103d 2fee 333d
000003d0: 7f33 3e3d 46a5 6ebd 4d5a ee3d d0c6 54bd
000003e0: 7be7 dc3c 1e76 8dbd 43f1 8d3d 71e4 2fbd
000003f0: 291e 2dbd ed3f 03be f7dc 8fbc 025b 2fbd
0.023838732 -0.03661674 0.057764627 0.06348112 -0.07838439 -0.0015345532 0.10065528 0.08322365
0.08855744 -0.11362321 -0.00013901311 -0.10835912 -0.003729932 0.0071791485 -0.120315045 0.090968825
-0.06568796 -0.124511786 0.02668335 0.05559841 -0.0114129465 0.0118449405 0.03286548 -0.07679662
-0.06957042 -0.0845887 0.10797311 0.049195416 -0.0530383 -0.0418135 0.042314723 0.09812212
0.11983241 0.021715594 -0.058150705 -0.082552776 0.0016922335 -0.06066052 0.06416232 0.12361293
-0.086642504 -0.0230904 -0.051001076 -0.04248093 -0.011231417 0.0467765 -0.05298775 -0.058354992
-0.02949432 0.022405012 0.05580853 0.11157687 0.0537565 0.11659984 0.07148887 0.06635019
0.026458612 -0.06906397 -0.073918454 0.0117574455 0.10336133 -0.0043595405 0.092148475 -0.097193375
-0.09182974 -0.012916939 0.08829006 0.03670325 0.02504594 -0.1367047 -0.02380361 0.12417067
-0.065773234 -0.03811967 -0.018069485 0.026488608 -0.13657767 -0.10211746 -0.07369225 0.0405313
0.07065581 -0.115161315 -0.122087926 -0.049252767 0.004353424 0.03852732 0.10536504 -0.05586315
-0.11355157 0.061386973 -0.08681399 -0.07425796 0.024661172 0.049686044 -0.057144172 -0.06426974
-0.1000702 0.067664675 0.07236073 -0.03469408 0.10921265 -0.067117415 -0.07839657 -0.10347894
0.027746547 0.07060404 -0.0041482123 -0.05438358 -0.12342712 -0.12397473 -0.03647358 0.0022461435
0.03576864 -0.07771915 0.055617347 -0.10384237 0.08066239 -0.0014683157 0.035880636 -0.10301541
0.08181068 -0.047830183 -0.04545424 -0.044223905 -0.1150273 0.058124464 0.011013794 -0.089923464
-0.067116916 0.007016383 0.058868013 -0.1123749 0.09605713 0.055697724 -0.012051777 -0.02899736
0.027598718 0.0672819 0.080162555 -0.09538612 0.077276 -0.094422475 0.08310403 -0.045919567
0.08824221 0.020590117 0.08065754 0.045172907 -0.101724155 -0.04777044 0.069323786 -0.10064321
0.06524954 0.07788267 -0.06862592 -0.08147383 -0.12116228 0.09317782 -0.12999386 -0.121083334
-0.030081352 -0.084809616 0.09859051 0.07782861 -0.0088715805 0.09180533 -0.068710044 -0.084871255
-0.09259422 0.08400403 0.068507455 0.07631349 -0.04761306 0.010456504 -0.07680185 -0.062457483
-0.052877266 -0.02254917 0.036353365 -0.108563066 0.07769962 0.09321191 0.071864985 -0.11342483
-0.04487234 -0.094215564 0.1239223 0.034390535 -0.041563723 -0.03336819 -0.08939138 0.0911043
0.06416319 0.062702395 0.007937218 -0.036394525 0.0892419 -0.061187416 0.10570557 0.019998144
0.113466345 0.07621399 -0.04160989 -0.0010756478 -0.009035876 0.11089853 0.038404997 0.043428708
-0.09806929 0.08693187 0.06438617 -0.023446748 0.017547768 -0.047997687 0.004780048 0.046028752
-0.007021974 -0.015367349 -0.05554089 0.06692573 -0.008517103 0.08826616 0.052116312 -0.008858195
0.0645529 0.066652425 0.015612036 -0.053060766 0.04464241 0.09394872 -0.09985306 0.07544259
0.11041753 -0.028204815 0.09068723 -0.08411228 -0.036779817 0.088680476 0.04445518 0.09163629
0.09001432 0.016577108 0.035180934 0.04392832 0.04643583 -0.058263086 0.11638317 -0.051947415
0.026965847 -0.06907295 0.06930783 -0.042942468 -0.04226509 -0.12817355 -0.017561419 -0.0428114

fc2.bias f4 [4]
00000000: aac9 8d3d 9df2 fa3c 0a84 d23c 6e15 5dbd
0.0692323 0.030633265 0.025697727 -0.053975515
